data/processed/tft_best.pt (torch, 120965 bytes, 17 tensors)

input_proj.weight f4 [64, 19]
0	0x3c51957d	0.012791988
1	0x3db3b09b	0.08773919
2	0xbd7daf3f	-0.061934706
3	0x3e7ce624	0.24697167
4	0x3e1f0546	0.15529355
5	0x3e0d262b	0.13784091
6	0x3da1bcc7	0.078973345
7	0x3e09bf70	0.13451934
8	0x3ce03ddd	0.027373249
9	0xbe08ed3d	-0.13371749
10	0x3d14249e	0.036167733
11	0x3d2184de	0.039433353
12	0x3d5e83d6	0.054324947
13	0x3ce1d6d9	0.027568268
14	0xbda21981	-0.07915021
15	0xbc7d73e2	-0.015469523
16	0x3e3f1f1c	0.18664211
17	0x3dc963da	0.09833498
18	0x3dd2aead	0.10287223
19	0xbd619083	-0.055069458
20	0xbda9b11e	-0.082857355
21	0xbe38f896	-0.18063578
22	0xbe50e195	-0.20398553
23	0xbd8ff4be	-0.07029103
24	0xbd7e93f0	-0.062152803
25	0xbcde727f	-0.027154205
26	0xbe7b1aff	-0.24522017
27	0xbe3032a5	-0.1720682
28	0x3d866742	0.065626636
29	0x3d1b96cf	0.03798562
30	0xbdb84ecb	-0.089994036
31	0x3e3898f7	0.18027101
32	0x3d8b214c	0.0679346
33	0xbe2145eb	-0.15749328
34	0xbe059e98	-0.1304878
35	0xbdf39ca8	-0.11895114
36	0x3bce26a2	0.0062912265
37	0xbbc8bc47	-0.00612596
38	0xbd5a975e	-0.05336701
39	0xbe1b151c	-0.15144771
40	0x3c1450eb	0.0090524955
41	0xbdc2a454	-0.09503999
42	0x3dfc9a2c	0.123340935
43	0x3dc7bd4d	0.09752903
44	0x3d048a24	0.032358304
45	0x3e37083e	0.17874238
46	0x3e2a8af4	0.16654569
47	0x3e4cb618	0.19991338
48	0x3dfc3fed	0.123168804
49	0x3ac350d4	0.0014901408
50	0xbda2c480	-0.07947636
51	0x3e276e18	0.16350591
52	0x3d7ac389	0.061221633
53	0x3e215415	0.15754731
54	0x3cd27f42	0.025695447
55	0x3d1b29e6	0.037881754
56	0xbd0a888a	-0.03382162
57	0x3bcc1329	0.00622787
58	0x3d837197	0.0641815
59	0x3cb9274e	0.02260175
60	0xbd65a31d	-0.05606376
61	0x3e303c8e	0.172106
62	0xbe3c7f0c	-0.1840784
63	0xbc91869e	-0.017764386
64	0x3d1fb485	0.038990516
65	0x3e34a628	0.17641509
66	0x3e2595a6	0.16170368
67	0x3d8873f2	0.0666274
68	0xbe4c61a0	-0.19959116
69	0x3e10ceea	0.14141431
70	0x3e492164	0.19641644
71	0xbd04b630	-0.03240031
72	0x3e0b8cde	0.13627955
73	0x3e37b77c	0.17941087
74	0xbd0f523a	-0.034990527
75	0x3ceac479	0.028658139
76	0x3e465de0	0.19371748
77	0x3dc70ab5	0.09718839
78	0xbe57a551	-0.21059157
79	0x3dc365d0	0.095409036
80	0xbd6a6803	-0.0572281
81	0x3df92547	0.12165313
82	0x3e45f9cf	0.19333576
83	0x3e60b243	0.21943001
84	0xbe05e65e	-0.1307616
85	0xbd1b662c	-0.037939236
86	0xbd163b8b	-0.03667788
87	0x3e12ec5b	0.14347975
88	0xbd4ebc13	-0.05047233
89	0xbdeb3498	-0.11484641
90	0x3c4fa1c6	0.012672847
91	0xbe0a1241	-0.13483526
92	0xbe4d55d4	-0.20052272
93	0xbdec19a9	-0.11528332
94	0xbc8394a4	-0.016062088
95	0xbcf20f38	-0.029548272
96	0x3c0e8897	0.008699558
97	0x3df780e6	0.12085132
98	0x3e561dab	0.20909755
99	0x3e33253a	0.1749467
100	0xbbb3f2da	-0.0054915966
101	0x3d45e1c9	0.04831103
102	0xbd6c4504	-0.057683006
103	0xbe3f53b0	-0.18684268
104	0x3d2165b6	0.03940364
105	0x3dc2919c	0.09500429
106	0x3c4ff650	0.012693003
107	0xbe4583a3	-0.19288497
108	0xbd4ca9a0	-0.049966455
109	0xbd3bea93	-0.045878004
110	0x3d0f0ed8	0.034926265
111	0x3dbcc4be	0.09217213
112	0xbe088a0a	-0.13333908
113	0xbe739392	-0.23786762
114	0xbd8ee4c4	-0.06977227
115	0xbe36dbc2	-0.17857268
116	0xbdd794f1	-0.10526455
117	0xbe21da6c	-0.15805978
118	0x3df7be88	0.12096888
119	0xbe6e2c60	-0.23259115
120	0xbdda408f	-0.10656845
121	0xbe1a0c1f	-0.15043686
122	0xbcf0446f	-0.029329507
123	0xbe0f3e31	-0.13988568
124	0xbdbd5059	-0.09243841
125	0xbc7ea99e	-0.01554337
126	0xbd95b29b	-0.07309457
127	0xbdd70758	-0.104994476
128	0xbe0e05ca	-0.13869396
129	0xbd789ad7	-0.06069454
130	0x3deadc29	0.114677735
131	0x3e116aee	0.14200947
132	0xbc653def	-0.013991817
133	0x3d17083b	0.036873084
134	0xbe523ad2	-0.2053025
135	0x3cf44d7c	0.029822104
136	0xbd4d3d0f	-0.05010706
137	0xbe0cdce4	-0.13756138
138	0xbc51717f	-0.012783407
139	0x3dd64885	0.10463051
140	0xbdb392f1	-0.08768261
141	0x3ddd4f2f	0.10806119
142	0xbdea351f	-0.11435913
143	0x3e366429	0.17811646
144	0xbdc2bdf0	-0.09508884
145	0x3d70f621	0.058828477
146	0xbe2d8c63	-0.16948085
147	0x3e1b07fe	0.15139768
148	0x3d186a42	0.03721071
149	0xbe0aac02	-0.13542178
150	0xbe198896	-0.1499351
151	0xbdf0106a	-0.11721881
152	0xbe100df5	-0.14067824
153	0xbd426c43	-0.047466528
154	0x3e325c17	0.17417942
155	0xbd0a4a8a	-0.033762492
156	0x3e22dc0b	0.15904252
157	0x3e0c8205	0.13721474
158	0x3e38e1a3	0.18054824
159	0xbc1f7933	-0.009733486
160	0x3e60d236	0.21955189
161	0xbd073ea1	-0.033018712
162	0xbd4d630b	-0.050143283
163	0x3e227403	0.15864567
164	0x3dbcdfbe	0.09222363
165	0x3daa9418	0.08329028
166	0x3d2664ac	0.040623352
167	0xbe0b58be	-0.13608071
168	0x3d53457e	0.051579945
169	0xbe14663e	-0.14492127
170	0xbe5e9250	-0.21735501
171	0xbdcb724d	-0.099339105
172	0xbe041d13	-0.12901716
173	0x3e185488	0.14875996
174	0xbe376e4d	-0.1791317
175	0xbdcdf21b	-0.100559436
176	0xbcd2a266	-0.025712203
177	0x3e84792f	0.25873706
178	0xbce6ff54	-0.028197922
179	0xbe550fa8	-0.20806754
180	0x3dd2ea7f	0.10298633
181	0x3e55298b	0.20816629
182	0x3d82f33a	0.06394048
183	0xbe50694c	-0.20352668
184	0x3e07bc7c	0.13255495
185	0xbe4d269a	-0.20034257
186	0xbde44375	-0.11145679
187	0xbc6ec10b	-0.014572392
188	0xbdd7f72e	-0.10545193
189	0x3e2587cc	0.16165084
190	0xbd955278	-0.0729112
191	0xbe227823	-0.15866141
192	0x3e2e9453	0.17048769
193	0xbe28993e	-0.16464707
194	0xbde3bba4	-0.11119774
195	0x3cbbdf87	0.022933735
196	0x3e17127d	0.14753146
197	0xbd86428c	-0.065556616
198	0xbdc76c45	-0.09737448
199	0x3e11419f	0.14185189
200	0xbd9e15d8	-0.0771901
201	0x3e49ca3d	0.19706054
202	0xbe2ae311	-0.16688181
203	0x3e5a1293	0.21296148
204	0xbe4929e7	-0.1964489
205	0x36d91ae0	6.4702326e-06
206	0x3c30772d	0.010770601
207	0xbe55bbe0	-0.2087245
208	0xbd9c12f3	-0.07620802
209	0x3dda13e5	0.10648326
210	0xbe23369c	-0.159388
211	0xbddfcd08	-0.109277785
212	0x3e27af55	0.16375478
213	0xbdc540aa	-0.09631474
214	0xbe3eea56	-0.1864408
215	0xbe539a03	-0.2066422
216	0x3dc58e1f	0.09646248
217	0xbd1de106	-0.038544677
218	0xbdd4dcb8	-0.10393661
219	0x3dea68aa	0.11445744
220	0xbe3dc55b	-0.18532316
221	0x3d8bf312	0.06833471
222	0xbe454095	-0.19262917
223	0x3ab059bb	0.0013454476
224	0x3e1c6cf4	0.15275937
225	0xb9d62e3f	-0.00040851717
226	0xbe02dce3	-0.12779574
227	0x3e811c9d	0.25217143
228	0xbd995b57	-0.07488125
229	0x3d918413	0.07105269
230	0x3e056900	0.13028336
231	0xbe64be61	-0.22338249
232	0xbe4056b2	-0.18783072
233	0x3c5a7543	0.013333621
234	0xbdee4c22	-0.11635615
235	0x3dfc0680	0.12305927
236	0xbe515333	-0.20441894
237	0xbe341174	-0.17584783
238	0x3d3373cb	0.0438116
239	0xbd24d4b2	-0.040241905
240	0xbc0b4adc	-0.008501735
241	0xbdd9b81a	-0.10630818
242	0xbd90e08c	-0.07074079
243	0x3d05be09	0.032651935
244	0xbddcf87d	-0.10789583
245	0x3e0e4e1a	0.13896981
246	0x3e46a9d3	0.1940072
247	0x3e0dd6a8	0.13851416
248	0x3d01bf19	0.031676386
249	0xbdc2461e	-0.0948603
250	0xbd1dce34	-0.03852673
251	0x3e220bb0	0.15824771
252	0xbd5a57f4	-0.053306535
253	0x3e45add5	0.19304593
254	0x3d00be83	0.031431686
255	0x3e10b5ea	0.14131895

input_proj.bias f4 [64]
0	0x3e2deac7	0.16984092
1	0xbd151834	-0.036400035
2	0xbe1e856b	-0.15480582
3	0xbe27c196	-0.16382441
4	0x3dd324e8	0.10309774
5	0x3e503bcb	0.20335309
6	0xbdee7088	-0.116425574
7	0xbcfae39d	-0.030626113
8	0xbdbf6fc5	-0.0934749
9	0x3d205a5d	0.039148677
10	0xbe07e82a	-0.13272157
11	0xbe3ff5ab	-0.18746059
12	0xbe637c19	-0.22215308
13	0xbe57e130	-0.21081996
14	0x3dbd5378	0.09244436
15	0xbe2a74d9	-0.16646136
16	0xbda49a8e	-0.080372915
17	0x3e115bd3	0.14195184
18	0x3e440d6d	0.19145747
19	0xbb793714	-0.0038027214
20	0x3d63fc73	0.055660676
21	0xbdd44f15	-0.10366646
22	0xbdf8ceed	-0.12148843
23	0xbe30adf7	-0.17253862
24	0x3ba994bf	0.0051752026
25	0x3e438fdd	0.19097848
26	0xbe777521	-0.24165775
27	0xbe616377	-0.22010599
28	0xbe17ffe2	-0.14843705
29	0xbe155bab	-0.1458575
30	0x3da13a0b	0.07872399
31	0x3e276f5c	0.16351074
32	0xbe079031	-0.13238598
33	0x3e2a1ee9	0.16613354
34	0xbd24f27b	-0.04027031
35	0xbde11e16	-0.109920666
36	0xbdd38d49	-0.103296824
37	0xbe201c77	-0.15635858
38	0xbd3e10d4	-0.046402767
39	0x3ce1066a	0.027468879
40	0x3e75515d	0.23956819
41	0xbe741f63	-0.23840098
42	0xbdf27ef5	-0.118406214
43	0x3e555ca4	0.20836121
44	0xbcacc46c	-0.021089755
45	0x3cc994ef	0.02460715
46	0xbdd384f4	-0.10328093
47	0x3e61c225	0.22046717
48	0xbe637d6d	-0.22215815
49	0x3e38f968	0.18063891
50	0xbe036814	-0.12832671
51	0xbe1d2d0c	-0.15349215
52	0x3ddfa6bd	0.10920475
53	0x3dbf2a55	0.09334246
54	0xbe1ad0c0	-0.15118694
55	0xbd5bb023	-0.053634774
56	0x3e365bee	0.17808506
57	0xbe6f76af	-0.23385118
58	0x3e501336	0.20319828
59	0xbe2eca48	-0.17069352
60	0xbe76f4f7	-0.24116884
61	0x3e7afbf2	0.24510172
62	0x3c87dcee	0.01658484
63	0xbd0c11ab	-0.034196537

attention.in_proj_weight f4 [192, 64]
0	0xbd837aec	-0.0641993
1	0x3e04ad85	0.12956817
2	0xbccc8e9f	-0.02497035
3	0xbbfd7100	-0.007734418
4	0x3de88261	0.11352993
5	0x3d6dee70	0.05808872
6	0xbd8e1eb8	-0.06939453
7	0xbdc6dd34	-0.0971016
8	0xbb179756	-0.0023130975
9	0x3cf42c3d	0.02980625
10	0x3de6fd3d	0.1127877
11	0xbd6b9773	-0.05751748
12	0x3e19ebf4	0.15031415
13	0xbd03c69d	-0.032171834
14	0x3b70ab1b	0.003672308
15	0xbe390afe	-0.180706
16	0xbe019d23	-0.12657599
17	0xbda74d48	-0.08169037
18	0x3dfadc86	0.12249093
19	0xbe084bd4	-0.13310176
20	0xbd3d7ad1	-0.046259705
21	0xbcc940c8	-0.024567023
22	0x3d5e3ad7	0.054255333
23	0xbdda18f5	-0.106492914
24	0xbe15f139	-0.146428
25	0x3df0ddb9	0.1176104
26	0xbb9d5e8c	-0.0048025306
27	0x3e18c42d	0.14918585
28	0xbc7245c6	-0.014787143
29	0xbd181e09	-0.03713802
30	0x39af0b04	0.00033386808
31	0x3c9c9663	0.019114679
32	0xbc0f4064	-0.008743379
33	0xbe0be9ec	-0.13663453
34	0xbd4fe585	-0.050755996
35	0x3d21b0eb	0.039475363
36	0x3d1b3ac3	0.037897836
37	0x3d58b13d	0.052903403
38	0x3c9d95cd	0.01923647
39	0xbd14ee78	-0.036360234
40	0xbd5e3094	-0.054245546
41	0x3e1d6b66	0.15373
42	0xbda11c1a	-0.07866688
43	0x3d6ec06d	0.05828898
44	0xbd2b357a	-0.041799046
45	0x3df768d4	0.12080541
46	0x3d86ce0b	0.06582268
47	0x3c9295be	0.017893668
48	0x3bd8d854	0.006617585
49	0x3db1b732	0.0867752
50	0x3d0467ae	0.03232544
51	0x3db2428a	0.087040976
52	0x3b8439b2	0.004035198
53	0x3e163101	0.14667131
54	0x3ded8b31	0.11598814
55	0x3b2b2fc6	0.0026121004
56	0xbda8e89e	-0.08247493
57	0xbde9d37c	-0.114172906
58	0xbe04e58b	-0.12978189
59	0xbcff2027	-0.031143261
60	0x3dc6daca	0.097096995
61	0x3e4d009f	0.20019768
62	0x3d9e0f73	0.077177905
63	0xbe3b1abd	-0.18271919
64	0xbe002486	-0.12513933
65	0x3dfe15c3	0.124064945
66	0xbc4c1339	-0.012455755
67	0xbdd2a77a	-0.1028585
68	0x3e30b683	0.17257123
69	0xbe1ef4dd	-0.15523095
70	0xbd5bf234	-0.05369778
71	0x3e3dce25	0.18535669
72	0xbceef87e	-0.029171225
73	0x3c461290	0.012089387
74	0x3d958810	0.073013425
75	0x3dfd390c	0.123643965
76	0xbde8d8c6	-0.11369471
77	0xbe0e4c93	-0.13896398
78	0xbe00c56d	-0.12575312
79	0x3dcd2df7	0.10018533
80	0x3d014a9f	0.031565305
81	0xbdd85b5e	-0.10564302
82	0x3cfdeea4	0.030997582
83	0x3d920fc2	0.07131912
84	0x3cb04183	0.021515613
85	0x3d8f8a13	0.070087574
86	0xbd379c86	-0.044827007
87	0x3ba12823	0.0049181147
88	0xbd2e5060	-0.04255712
89	0x3dadbdc3	0.0848346
90	0xbdbd5044	-0.09243825
91	0x3d8fb5c5	0.07017092
92	0x3d6539a4	0.055963174
93	0x3e4e7ec4	0.20165545
94	0xbd818fc1	-0.06326247
95	0xbd9961fc	-0.07489392
96	0x3ddf8372	0.10913743
97	0xbe229698	-0.1587776
98	0xbd176a0a	-0.03696636
99	0x3d6d6a6f	0.05796283
100	0xbe26b3af	-0.16279481
101	0x3e0aaeab	0.13543193
102	0xbe0feb4e	-0.14054605
103	0xbcfad0dd	-0.030617172
104	0xbce336ce	-0.027736094
105	0x3dd77cb1	0.1052183
106	0xbda634cd	-0.0811554
107	0x3c818482	0.015810255
108	0xbcfcc5fd	-0.030856127
109	0xbe2ba703	-0.16762929
110	0xbc2818ba	-0.0102598015
111	0x3bb24927	0.0054408493
112	0xbdb39cf2	-0.08770169
113	0x3c89d6f2	0.016826127
114	0x3dd6c19f	0.10486149
115	0x3c38c45e	0.011277286
116	0x3e0f4e60	0.13994741
117	0xbc6bb9b2	-0.014387535
118	0x3d1a69d8	0.037698597
119	0x3d81f1b4	0.06344929
120	0x3d074bce	0.033031277
121	0xbdc09bea	-0.09404738
122	0x3dadd9f3	0.08488836
123	0x3dba6232	0.091007605
124	0x3d48f51f	0.04906189
125	0x3de7cef1	0.11318768
126	0x3cfd471c	0.030917697
127	0x3d8f47bd	0.06996105
128	0x3d33360f	0.043752726
129	0x3dbcf48f	0.09226333
130	0xbe24988c	-0.16073817
131	0xbb471029	-0.0030374622
132	0xbde59038	-0.11209148
133	0xbd1cc4b7	-0.03827354
134	0x3ce49ee1	0.02790779
135	0x3c2e1589	0.010625252
136	0xbda6cf55	-0.08145014
137	0xbde7843f	-0.11304521
138	0xbce7ee10	-0.02831176
139	0x3b0cd805	0.0021491062
140	0x3d1da66b	0.038488787
141	0xbb77a362	-0.0037786593
142	0xbc715f6d	-0.014732224
143	0xbe07910f	-0.13238929
144	0x3d9fc771	0.07801712
145	0xbdd0ea6d	-0.10200963
146	0x3dc136ae	0.094342574
147	0x3da1b212	0.07895292
148	0x3e2c6924	0.16836983
149	0x3d9f57f4	0.077804476
150	0xbe3790ed	-0.17926379
151	0x3dd949cd	0.106097795
152	0x3d2cb9ec	0.042169496
153	0x3d6ce024	0.057830945
154	0x3c4adc8d	0.012381685
155	0x3e012bfc	0.12614435
156	0xbdbccc5a	-0.092186645
157	0xbe2658e6	-0.1624485
158	0x3e142caa	0.14470163
159	0x3dc1a6a9	0.09455616
160	0xbd8394df	-0.06424879
161	0xbd9efe41	-0.07763339
162	0xbc88bfb3	-0.016692972
163	0x3de5ccd5	0.11220709
164	0x3d8fe81d	0.07026694
165	0x3d8a9bae	0.06767975
166	0x3dedc12c	0.1160911
167	0x3e2445e1	0.16042282
168	0xbc23db5a	-0.010001028
169	0x3d0f99e0	0.035058856
170	0x3ccc47f7	0.02493666
171	0xbd9e7f68	-0.077391446
172	0x3d703e33	0.058653068
173	0x3e39915d	0.18121858
174	0xbe1076d3	-0.14107828
175	0xbd8a56db	-0.067548476
176	0x3e056334	0.13026124
177	0xbdb34490	-0.08753312
178	0xbda511f9	-0.08060069
179	0x3df2de8b	0.11858853
180	0xbd62380b	-0.055229228
181	0xbdb23418	-0.08701342
182	0xbd5e6a83	-0.054300796
183	0xbd968e1e	-0.073513255
184	0x3e02759f	0.12740181
185	0x3e0a0de2	0.13481858
186	0xbdf11db2	-0.11773242
187	0x3d2e4a16	0.042551123
188	0x3cbf12fc	0.023324482
189	0xbd0baa5b	-0.03409801
190	0x3d97359b	0.07383271
191	0x3e188f6c	0.14898461
192	0x3de6ed83	0.112757705
193	0x3c61a922	0.013773235
194	0xbcc1ed20	-0.02367264
195	0xbd91e631	-0.07123984
196	0xbd8e4b8c	-0.06948003
197	0xbdd01a4d	-0.101612665
198	0xbcf89145	-0.030342707
199	0xbe2fd1ff	-0.17169951
200	0xbd9cb6f2	-0.076520815
201	0xbda90cb0	-0.08254373
202	0xbe026f2f	-0.12737726
203	0xbd23c177	-0.039979424
204	0x3e006cd4	0.12541515
205	0x3ce8b348	0.0284058
206	0xbda43707	-0.08018308
207	0x3d8fab40	0.07015085
208	0x3dc0340e	0.09384929
209	0xbc309d0b	-0.010779629
210	0xbc8e77d8	-0.01739113
211	0x3d757259	0.059923504
212	0x3e3bcbcf	0.18339466
213	0xbd70d907	-0.058800723
214	0x3c23d4f0	0.009999499
215	0xbcddcc04	-0.027074821
216	0x3d986553	0.07441201
217	0x3cafcc41	0.0214597
218	0x3db3617d	0.08758829
219	0xbd2aaaa6	-0.04166665
220	0x3deda68c	0.11604032
221	0xbce09615	-0.027415315
222	0xbc31b711	-0.010846869
223	0x3db87abd	0.090077855
224	0x3dcea22f	0.10089528
225	0x3d265f10	0.040618002
226	0xbc8ab469	-0.01693173
227	0x3e021898	0.12704694
228	0x3d0a9868	0.033836752
229	0x3d2b2951	0.04178745
230	0xbd81d786	-0.06339936
231	0x3dbe1205	0.09280781
232	0xbe22ecf8	-0.15910709
233	0x3dab7ba1	0.0837319
234	0x3d8cd862	0.06877209
235	0x3e09b4c0	0.13447857
236	0x3e21a9f2	0.15787485
237	0xbb6df83b	-0.0036311287
238	0xbdaa3c42	-0.083122745
239	0xbe218d0c	-0.15776461
240	0x3e282880	0.164217
241	0xbcd8ab0a	-0.026448745
242	0xbdefe3e7	-0.11713391
243	0x3e3b7470	0.18306136
244	0xbe07b137	-0.13251196
245	0x3d66230f	0.05618578
246	0x3d8ecb10	0.06972325
247	0x3d5fc83a	0.05463431
248	0x3de9af5b	0.114103995
249	0xbddf3ef0	-0.10900676
250	0xbe3eeb67	-0.18644486
251	0xbdfe3b59	-0.124136634
252	0xbde15954	-0.11003366
253	0x3d8cfe7c	0.068844765
254	0xbc69076f	-0.014222964
255	0x3d51d30d	0.051226664

attention.in_proj_bias f4 [192]
0	0xbce2a5dc	-0.027666979
1	0xbcdd08c1	-0.026981713
2	0xbca9788b	-0.020687362
3	0xbd0d74e0	-0.03453529
4	0xbd2837ea	-0.04106895
5	0xbbb7eec0	-0.005613178
6	0x3cbe8ae9	0.023259597
7	0xbc8471d7	-0.016167564
8	0x3cec1b5b	0.028821638
9	0xbd6f29a6	-0.05838933
10	0xbcbf145a	-0.023325134
11	0x3cff1726	0.031138968
12	0x3c85923a	0.016305078
13	0x3cac2c12	0.021017108
14	0xbcd7993d	-0.026318187
15	0x3d775117	0.060380068
16	0x3cf2a047	0.029617442
17	0xbd86f209	-0.06589133
18	0x3d3c53ac	0.045978233
19	0xbc611c22	-0.013739618
20	0x3d2972fe	0.04136943
21	0x3da4f6d1	0.08054889
22	0xbc19ede5	-0.009395097
23	0xbdc7a55b	-0.09748336
24	0xbcf6fa1d	-0.03014856
25	0xbceac17d	-0.028656716
26	0xbcb03c7b	-0.021513214
27	0xbd139c05	-0.036037464
28	0xbd978142	-0.07397701
29	0x3cb48162	0.02203435
30	0x3c21ec23	0.00988296
31	0xbd99d766	-0.07511787
32	0x3d23a51e	0.03995239
33	0xba954282	-0.0011387619
34	0xba7b8648	-0.00095948996
35	0x3c064bde	0.008196799
36	0x3c8ac49d	0.016939456
37	0xba838a32	-0.0010035692
38	0xbd031b60	-0.03200853
39	0x3d2dbd54	0.042416885
40	0xbb7aaefd	-0.0038251274
41	0xbbaa2887	-0.0051928195
42	0x3c0ef82f	0.008726164
43	0x3d10542e	0.03523653
44	0x3b2a289b	0.0025964144
45	0x3d8458c0	0.0646224
46	0xbd313308	-0.043261558
47	0x3c3d6b10	0.01156117
48	0x3d424932	0.047433086
49	0x3bb06a58	0.005383771
50	0xbc31007a	-0.010803336
51	0xbcbf3d7b	-0.023344746
52	0x3d4e60df	0.050385352
53	0xbbfdd650	-0.0077464953
54	0xbc302da6	-0.010753071
55	0x3cf44271	0.029816838
56	0x3c51f25f	0.012814133
57	0x3d39c5f2	0.04535479
58	0xbc95aabd	-0.01826989
59	0x3ce4127c	0.027840845
60	0xbd189da4	-0.037259713
61	0x3ca75bec	0.020429574
62	0x3d30397d	0.043023575
63	0xbbb76a5d	-0.0055973963
64	0xb6eb6d10	-7.0162423e-06
65	0x3702f4d2	7.8056055e-06
66	0xb69fb25c	-4.759333e-06
67	0xb544836a	-7.320692e-07
68	0xb684c3c4	-3.9566967e-06
69	0x36839f6c	3.9226634e-06
70	0x35b0f664	1.3184731e-06
71	0xb5a0caf7	-1.198e-06
72	0x350922fc	5.1087386e-07
73	0xb7383b46	-1.0981055e-05
74	0xb743f7d4	-1.1680608e-05
75	0xb61554b4	-2.2252034e-06
76	0x3690b1bf	4.312227e-06
77	0xb5423d30	-7.235967e-07
78	0x3657e93a	3.2173252e-06
79	0xb5846861	-9.865145e-07
80	0xb5d6686c	-1.5974633e-06
81	0x360b5048	2.0759344e-06
82	0xb5c9b9d8	-1.5029755e-06
83	0xb6b326fc	-5.339154e-06
84	0x36f5d020	7.325798e-06
85	0xb701f30b	-7.745587e-06
86	0xb614f694	-2.2197246e-06
87	0xb4b6f540	-3.4078585e-07
88	0x36880604	4.053816e-06
89	0xb67ef838	-3.7993432e-06
90	0x3746a8b9	1.18410035e-05
91	0x36d3cdfd	6.31227e-06
92	0x35ef6045	1.7834906e-06
93	0x36e99ca3	6.962176e-06
94	0xb6a02d42	-4.7736403e-06
95	0x34cc2c88	3.8030362e-07
96	0xb5c31fce	-1.4537889e-06
97	0xb6ae4778	-5.193924e-06
98	0xb572f638	-9.051032e-07
99	0x3499d6b6	2.8654694e-07
100	0xb5089620	-5.088241e-07
101	0xb62116c4	-2.400412e-06
102	0xb6665433	-3.4321681e-06
103	0xb68a3641	-4.1190365e-06
104	0xb5c4886b	-1.4642841e-06
105	0xb65bb262	-3.2737375e-06
106	0xb58f7900	-1.0689546e-06
107	0x369faa34	4.7583835e-06
108	0xb6a8c198	-5.0293274e-06
109	0xb710524a	-8.602228e-06
110	0x36c755ce	5.940651e-06
111	0x367fe28e	3.8129833e-06
112	0x32f46e00	2.845536e-08
113	0x36c6e313	5.9272948e-06
114	0x35ce8a8a	1.5388516e-06
115	0x3506cca4	5.021668e-07
116	0xb636c846	-2.7236688e-06
117	0xb68bb2e9	-4.1633507e-06
118	0x360d7686	2.1079627e-06
119	0x34258178	1.5413923e-07
120	0xb5b6bc12	-1.3614792e-06
121	0xb6cc8a0c	-6.0957445e-06
122	0x36b45301	5.374081e-06
123	0xb6e6d1a2	-6.8789386e-06
124	0x36cd6103	6.1207697e-06
125	0xb6c27cfc	-5.7962006e-06
126	0xb5bb59a1	-1.3958671e-06
127	0x36b1fc14	5.304357e-06
128	0xbcdf43e5	-0.027254054
129	0x3c83e38b	0.016099712
130	0xbcf8dcd3	-0.030378735
131	0xbca8fb97	-0.02062778
132	0xbcc4a4b6	-0.024004322
133	0x3c4bc516	0.012437126
134	0x3aa27e12	0.0012397191
135	0xbc399bd0	-0.0113286525
136	0xbc9f3c28	-0.019437864
137	0xbc736ad6	-0.014857015
138	0xbc55335b	-0.013012732
139	0xbc74202d	-0.014900249
140	0x3c37f768	0.01122842
141	0xbccd88cb	-0.025089642
142	0x3cb1038d	0.021608138
143	0x3c697271	0.014248476
144	0x3ca8e15e	0.020615276
145	0xbb1fd643	-0.0024389185
146	0x3cd72d21	0.026266636
147	0x3c949a4c	0.01813998
148	0xbcc34e08	-0.02384092
149	0x3cb79e2e	0.022414293
150	0x3c66720a	0.014065275
151	0xbc91ed68	-0.0178134
152	0xbc9f732e	-0.019464102
153	0x3be7d563	0.007074998
154	0x3cbcf766	0.023067188
155	0xbbf67fa2	-0.0075225392
156	0xbcbac8b4	-0.02280078
157	0xbc7aa333	-0.015297699
158	0xbc291703	-0.010320428
159	0x3bdb2f48	0.006688986
160	0xbcce765d	-0.025202924
161	0x3cd40183	0.025879627
162	0x3cb1951f	0.021677552
163	0x3caf0ca1	0.021368327
164	0xbcbce510	-0.023058444
165	0x3b5e5665	0.0033926007
166	0x3c8e3600	0.017359734
167	0x3ca2588e	0.019817617
168	0xbca39674	-0.019969203
169	0xbca48b89	-0.020086067
170	0xbc812788	-0.01576592
171	0xbcddf254	-0.02709309
172	0x3c5dedaa	0.013545433
173	0x3ca87a0b	0.020566007
174	0xbce222d8	-0.027604505
175	0x3c045b94	0.008078475
176	0xbbdff022	-0.006834046
177	0xbc58ec7c	-0.013239976
178	0xbd09889a	-0.03357754
179	0xbca62b57	-0.020284338
180	0xbc487807	-0.012235648
181	0xbc8869a2	-0.016651932
182	0xbc890105	-0.016724119
183	0x3c887687	0.01665808
184	0x3ab018cf	0.0013435128
185	0x3c9d4556	0.019198101
186	0xbccbb21e	-0.024865206
187	0x3cb6219f	0.022232829
188	0x3c876049	0.016525405
189	0x3ca985f1	0.020693751
190	0xbc9b3d3d	-0.0189501
191	0xbbedea52	-0.007260599

attention.out_proj.weight f4 [64, 64]
0	0x3ca8282c	0.020526968
1	0xbd70e9f0	-0.05881685
2	0x3d8c35ff	0.068462364
3	0x3dbfd931	0.09367598
4	0x3d8b1398	0.067908466
5	0x3d0d3637	0.03447553
6	0x3da6cfe5	0.081451215
7	0xbd92067e	-0.071301445
8	0x3d412c91	0.047161642
9	0x3d851692	0.064984456
10	0xbc601e49	-0.013679096
11	0xba63a370	-0.0008683717
12	0x3d4804a6	0.048832558
13	0x3cf16484	0.029466875
14	0x3aed7a0e	0.001811804
15	0xbdf55b29	-0.11980278
16	0x3dd7db41	0.10539866
17	0x3d8e6515	0.069528736
18	0xbc857c8c	-0.01629474
19	0xbd86db30	-0.065847754
20	0x3ddd00a9	0.107911415
21	0x3d0fd908	0.035119087
22	0xbbdfcb98	-0.00682969
23	0xbd9323ca	-0.071845606
24	0xbd9fa3e2	-0.0779493
25	0xbb3f441e	-0.0029184888
26	0xbd852d30	-0.065027595
27	0x3d9dfa1b	0.077137195
28	0xbdce5cb6	-0.10076277
29	0xbd835b6f	-0.06413924
30	0xbde9e44a	-0.11420496
31	0x3cfae0bb	0.030624738
32	0xbda24203	-0.07922747
33	0x3db94c19	0.090477176
34	0xbdd445a1	-0.10364843
35	0x3d273faa	0.0408322
36	0x3c489a87	0.012243873
37	0xbd4c5c79	-0.049892876
38	0x3dd0cbc0	0.10195112
39	0xbd89a2b3	-0.067204855
40	0x3da9ac4f	0.082848184
41	0xbdb711a3	-0.08938911
42	0xbdc4f053	-0.09616151
43	0xbdb2b030	-0.08725011
44	0x3c2f0396	0.010682007
45	0xbc888b6b	-0.016668042
46	0x3d97aeb9	0.074063726
47	0xbddb366d	-0.1070374
48	0x3d23c3ac	0.03998153
49	0xbdf16816	-0.11787431
50	0x3cc8f4c8	0.024530783
51	0x3d443c28	0.047908932
52	0xbc168d72	-0.009188997
53	0x3d45400d	0.048156787
54	0xbc886355	-0.016648928
55	0xbdad2638	-0.08454555
56	0x3ca4329a	0.02004366
57	0xbd8c0f33	-0.068388365
58	0x3db10853	0.08644166
59	0xbdac123b	-0.08401915
60	0x3d8dab41	0.0691743
61	0xbd8ff7db	-0.070296966
62	0xbdae2e18	-0.085048854
63	0xbc26439c	-0.010147955
64	0xbdc1ee34	-0.09469262
65	0xbdd96a00	-0.10615921
66	0xbdefbd08	-0.11705977
67	0x3d7d6c77	0.06187102
68	0xbdbd139f	-0.09232258
69	0xbca3e3d4	-0.020006098
70	0x3d0bc881	0.034126762
71	0xbd06ad01	-0.032879833
72	0xbd8f73cd	-0.07004509
73	0x3cfc6fc3	0.03081501
74	0xbd8d2d50	-0.06893408
75	0x3dc1a2b1	0.09454859
76	0xbe0cba7c	-0.13743013
77	0xbd5eaaae	-0.05436199
78	0x3d1ae289	0.037813697
79	0x3db9b380	0.0906744
80	0xbd3d4adf	-0.04621398
81	0xbd0dcc54	-0.03461869
82	0xbc9b7c2c	-0.018980108
83	0xbdde9b1d	-0.10869429
84	0x3ce6ab0e	0.028157737
85	0xbd8d3fb5	-0.06896917
86	0xbdf5251c	-0.11969969
87	0x3cc0893b	0.023502937
88	0x3acb577a	0.0015513741
89	0xbd87a9a9	-0.06624157
90	0x3db07110	0.08615315
91	0xbd89174d	-0.066938974
92	0xbdd87908	-0.1056996
93	0x3cccdc5a	0.025007416
94	0x3e02f62c	0.1278922
95	0x3da868d7	0.082231216
96	0xbb92d9eb	-0.0044815443
97	0xbd907486	-0.07053475
98	0x3dc0e431	0.09418524
99	0x3de23bd8	0.110465705
100	0xbd967c80	-0.07347965
101	0x3dc3bdd7	0.095576935
102	0x3daef954	0.08543649
103	0xbdbf2ce5	-0.09334735
104	0xbde025de	-0.109447226
105	0x3cf43606	0.029810917
106	0x3dd27b16	0.10277383
107	0x3d9dbe3e	0.077023014
108	0xbdfb4f85	-0.122710265
109	0xbd5825bd	-0.052770365
110	0x3daa8f71	0.083281405
111	0xbd167ce3	-0.036740195
112	0xbb888802	-0.004166604
113	0x3db4c3ee	0.08826433
114	0x3b81531d	0.0039466755
115	0xbcc39147	-0.023872985
116	0xbc908e55	-0.017645994
117	0x3da85c72	0.082207575
118	0xbd0bd88d	-0.034142066
119	0x3dadb74b	0.08482226
120	0xbc0feeaa	-0.008784929
121	0x3ac8fbc0	0.0015333816
122	0xbcdd4650	-0.027011067
123	0x3d384396	0.04498633
124	0xbdee880d	-0.116470434
125	0xbdabdfdc	-0.08392307
126	0x3d9b5b6e	0.07585798
127	0xbdddc070	-0.1082772
128	0x3c7204a9	0.014771619
129	0x3dcfca3f	0.10145997
130	0x3c89ea4a	0.01683535
131	0x3db0b893	0.08628955
132	0x3e21153b	0.15730755
133	0x3de8f86a	0.11375506
134	0x3da4c83e	0.08046006
135	0x3d1f555a	0.038899757
136	0x3e0bf93e	0.13669297
137	0x3dc085ae	0.094004974
138	0x3d93bc82	0.072136894
139	0x3d25e00b	0.040496867
140	0x3d6167be	0.055030577
141	0xbc959b3c	-0.018262498
142	0xbe0a275e	-0.1349158
143	0xbd4ea023	-0.050445687
144	0x3dc16ed9	0.09444971
145	0x3c1cd3a5	0.009571944
146	0xbde7c805	-0.113174476
147	0xbd278e2d	-0.040907074
148	0x3dc20118	0.09472865
149	0x3d27dc46	0.040981553
150	0xbce31fca	-0.02772512
151	0xbdf4f1a2	-0.1196015
152	0x3dd40912	0.103532925
153	0x3dc17742	0.09446575
154	0xbdf8ef91	-0.12155069
155	0xbd0e8435	-0.03479405
156	0x3d7f3829	0.062309418
157	0x3d26f9c2	0.04076553
158	0xbc93df65	-0.018050859
159	0x3b870e06	0.004121545
160	0x3e0e44d9	0.13893451
161	0xbdcd5321	-0.10025621
162	0x3d143b0b	0.03618912
163	0xbd35649f	-0.044285413
164	0x3d96975a	0.07353087
165	0xbca2f6a8	-0.019893005
166	0xbcd5b8e8	-0.026089147
167	0x3cbaeba8	0.022817448
168	0x3d0439c3	0.03228165
169	0x3e08c55a	0.13356534
170	0x3e087711	0.1332667
171	0x3de2e70b	0.11079224
172	0x3d842291	0.064519055
173	0xbdd33eae	-0.103146896
174	0xbdcac44e	-0.099007234
175	0xbd9a8141	-0.075441845
176	0x3d21b675	0.039480645
177	0xbd6fa78e	-0.058509402
178	0xbdedbd76	-0.116084024
179	0xbc1e1339	-0.009648138
180	0xbd79118f	-0.06080776
181	0xbc538608	-0.0129103735
182	0x3ca0b68b	0.019618293
183	0xbdc7e06b	-0.09759601
184	0x3c21393a	0.009840304
185	0xbdbe817e	-0.093020424
186	0x3d0a7523	0.033803117
187	0xbc9637e7	-0.018337203
188	0xbd88378a	-0.06651218
189	0xbde64dce	-0.11245309
190	0xbc996f72	-0.0187299
191	0xbda276e7	-0.07932835
192	0xbc9c52d2	-0.01908246
193	0x3c5f8827	0.013643301
194	0x3aebf7b2	0.0018002896
195	0x3df962ad	0.12177024
196	0x3deabc4c	0.11461696
197	0x3dcb493c	0.09926078
198	0x3a62c3c1	0.00086503854
199	0xbd2f247a	-0.042759396
200	0x3d3103b5	0.043216426
201	0xbcaa17fc	-0.02076339
202	0xbda76e0f	-0.08175289
203	0x3e03c82e	0.12869331
204	0x3c995fe6	0.018722486
205	0xbd66e545	-0.056370992
206	0x3d32175e	0.043479316
207	0x3e347a8e	0.17624876
208	0x3d104b37	0.03522798
209	0x3d0e4634	0.03473492
210	0xbddbb866	-0.107285306
211	0xbdbf2a8e	-0.093342885
212	0xbd805cce	-0.06267701
213	0xbd8ebbfd	-0.0696945
214	0xbdaabf08	-0.083372176
215	0xbda404f9	-0.08008761
216	0x3957d669	0.00020583872
217	0xbd660789	-0.05615953
218	0xbd242960	-0.04007852
219	0x3de04891	0.10951341
220	0x3ce39ee0	0.027785718
221	0x3c655e5a	0.013999546
222	0x3dd0e940	0.10200739
223	0xbe0dec6e	-0.13859722
224	0xbc1086cd	-0.0088212015
225	0x3c0887fe	0.008333204
226	0x3d60df9d	0.054900754
227	0xbd77b6fd	-0.060477246
228	0xbd698ff0	-0.057022035
229	0xbd9dfb06	-0.077138945
230	0x3da7ecdc	0.08199474
231	0x3c41db36	0.011832049
232	0x3bb371a0	0.0054761916
233	0xbc0859b0	-0.008322164
234	0xbc96891a	-0.018375922
235	0x3dd67554	0.10471597
236	0x3cf7032d	0.030152882
237	0xbd77e51c	-0.06052123
238	0xbd2cc0ba	-0.042175986
239	0xbd8a56c0	-0.067548275
240	0xbc0a9aeb	-0.008459787
241	0xbc8080b4	-0.01568637
242	0x3da91c66	0.0825737
243	0xbc9bf0f1	-0.019035788
244	0xbd11db1b	-0.035609346
245	0xbd5212b3	-0.051287364
246	0x3ddb96b9	0.107221074
247	0xbdba51f2	-0.09097661
248	0x3d868caf	0.06569802
249	0xbdde8219	-0.10864658
250	0x3d8228e8	0.063554585
251	0x3dd0f60f	0.10203182
252	0x3cd82932	0.026386831
253	0x3d9b5f74	0.075865656
254	0x3c83f6f2	0.016108964
255	0xbd3ddb27	-0.046351578

attention.out_proj.bias f4 [64]
0	0xbc327dbb	-0.010894234
1	0x3d01696b	0.031594675
2	0xbc9fbc6d	-0.019499028
3	0xbcc1fede	-0.0236811
4	0xbd023876	-0.031792127
5	0xbc17aa42	-0.009256901
6	0x3d416def	0.04722398
7	0x3cd37d63	0.025816625
8	0xbb4fb2e5	-0.0031692323
9	0xbc0a02ab	-0.008423488
10	0x3ca83625	0.02053363
11	0xbcd3b055	-0.025840918
12	0x3cf19fdb	0.02949517
13	0x3c5f2383	0.0136193065
14	0xbcbc3f5f	-0.022979436
15	0x3ca74629	0.020419197
16	0x3ce90f10	0.028449565
17	0xbc39d29d	-0.011341718
18	0xbcc00445	-0.023439536
19	0xbc96200a	-0.018325824
20	0xbd07ea68	-0.03318253
21	0xbc47174b	-0.01215155
22	0xbca21571	-0.019785615
23	0xba7cf4ce	-0.0009649516
24	0xbc5994c0	-0.013280094
25	0xba33877f	-0.00068484986
26	0xbc7c7a12	-0.015409963
27	0xbd084cf1	-0.033276502
28	0xbc7204a6	-0.014771616
29	0x3ca4675b	0.020068815
30	0x3c883e23	0.016631192
31	0xbb0f1eb2	-0.0021838364
32	0x3ca3b0b1	0.019981714
33	0x3c8752d0	0.01651898
34	0xbb5822e5	-0.0032979783
35	0xbc8873a2	-0.0166567
36	0x3b3809a2	0.0028081913
37	0x3cf065d4	0.02934543
38	0x3cfabdf0	0.030608147
39	0x3ca7ea20	0.020497382
40	0x3c8a0e4c	0.01685252
41	0xbcc09c59	-0.023512052
42	0x3d020702	0.031744964
43	0x3ca379e6	0.019955587
44	0x3c8f0ca4	0.017462082
45	0xbcac9990	-0.021069318
46	0x3c4bd3f6	0.012440672
47	0xbbd1e562	-0.0064055184
48	0xbc060dca	-0.0081819985
49	0x3c8fab29	0.01753767
50	0xbc895a5b	-0.016766718
51	0x3c96540b	0.018350622
52	0x3ca78572	0.020449374
53	0x3c9b6f20	0.018973887
54	0xbc002c21	-0.007823021
55	0xbcad2e80	-0.021140337
56	0xbd44e4cb	-0.048069756
57	0xbcd99dcf	-0.026564507
58	0xbbd6be81	-0.0065534716
59	0x3ccab438	0.024744138
60	0xbc817400	-0.015802383
61	0x3c6f2868	0.014597036
62	0xbce7215a	-0.028214145
63	0x3cbeffde	0.023315366

grn.0.weight f4 [64, 64]
0	0xbd377d0d	-0.044796992
1	0xbd14734a	-0.03624276
2	0xbd4a9a6a	-0.049463667
3	0xbd0af328	-0.033923298
4	0xbca3509e	-0.019935902
5	0x3baead0c	0.0053306874
6	0xbd8d266d	-0.06892095
7	0xbdc28cf1	-0.09499539
8	0x3cad4f7e	0.021156069
9	0x3c843e54	0.016143002
10	0xbcf7490f	-0.030186204
11	0x3dbb3867	0.09141617
12	0xbda71108	-0.08157545
13	0x3d658b9e	0.056041352
14	0xbd4e6cd3	-0.05039675
15	0x3d3f9077	0.04676863
16	0x3d930291	0.07178224
17	0xbdb04b3b	-0.08608099
18	0xbdf737d0	-0.12071192
19	0x3cb61580	0.022227049
20	0x3c4414ee	0.011967881
21	0xba7a3727	-0.00095449615
22	0x3d3ca77c	0.046058163
23	0xbce00614	-0.027346648
24	0x3d8f05fb	0.069835626
25	0xbdb6372a	-0.088972405
26	0x3d2ec6fc	0.042670235
27	0x3d69bf4a	0.057067193
28	0x3d675ab7	0.056482997
29	0x3dadd8bc	0.084886044
30	0x3d86a38b	0.06574162
31	0xbd5950b2	-0.053055473
32	0xbd1e1e42	-0.038603075
33	0xbdc937f1	-0.09825123
34	0xbd395265	-0.045244593
35	0x3d3ffd16	0.04687222
36	0x3d6cc26f	0.057802614
37	0x3c1b3d58	0.009475075
38	0x3d5953d6	0.053058468
39	0x3d393aa4	0.04522194
40	0x3d788435	0.060672957
41	0xbba86010	-0.0051384047
42	0x3dd043a2	0.1016915
43	0x3c11f482	0.008908393
44	0xba64cfd6	-0.000872848
45	0xbd19f7c7	-0.037589815
46	0xbd980a4e	-0.074238405
47	0xbc542056	-0.012947163
48	0xbd0b6c57	-0.034038868
49	0xbba8fe2c	-0.005157253
50	0x3d6463cd	0.05575924
51	0x3db660f3	0.0890521
52	0x3c2380db	0.009979452
53	0x3db372c5	0.08762125
54	0xbd8f5d9e	-0.07000278
55	0xbdd391a5	-0.10330514
56	0x3c8ea702	0.01741362
57	0x3b424310	0.0029642023
58	0x3d9bc5b2	0.07606067
59	0xbc363eb2	-0.011123346
60	0x3d7b86c0	0.061407804
61	0x3db6ca62	0.0892532
62	0xbca058c6	-0.01957358
63	0x3d7a4234	0.061098292
64	0x3db94fca	0.09048422
65	0xbe0b4def	-0.13603948
66	0x3dca5396	0.09879224
67	0xbd255add	-0.040369857
68	0xbdb32f93	-0.087493084
69	0x3db7325c	0.08945152
70	0x3d1edd7a	0.038785435
71	0xbbb7c21d	-0.005607857
72	0x3d2bbf22	0.041930325
73	0xbd4ad2f9	-0.049517605
74	0x3d1c0e08	0.03809932
75	0xbd0eeb7b	-0.03489254
76	0x3ca99707	0.020701898
77	0xbd1b8cb4	-0.03797598
78	0xbb801491	-0.0039087017
79	0x3e0bae57	0.13640724
80	0x3dc4a51c	0.096018046
81	0xbd26f836	-0.040764056
82	0xbd0b311e	-0.03398239
83	0xbc2e2fb0	-0.010631487
84	0xbd1d454c	-0.038396165
85	0xbdded60f	-0.10880672
86	0xbe0033da	-0.1251978
87	0xbdbaee43	-0.09127476
88	0x3c8cd829	0.017192917
89	0x3d4a5d0d	0.049405146
90	0xbd93a6b3	-0.0720953
91	0x3bdee9f8	0.0068027936
92	0xbd43d5c2	-0.047811277
93	0x3d1c19db	0.038110595
94	0x3cc33324	0.023828097
95	0x3cf20ece	0.029548075
96	0x3dcae416	0.09906785
97	0xbd72e797	-0.059302893
98	0x3d3e115c	0.046403274
99	0xbdfe59d5	-0.12419478
100	0xbd19cfed	-0.03755181
101	0x3d662eb1	0.056196872
102	0x3d8f5e29	0.070003815
103	0x3c386cfa	0.011256451
104	0x3cbbd2a6	0.022927593
105	0xbdaac9ad	-0.08339248
106	0x3da0b05b	0.07846137
107	0x3de028ec	0.10945305
108	0xbd962adb	-0.07332393
109	0xbc77e41c	-0.015130069
110	0x3db16f33	0.08663788
111	0xbd4459ef	-0.04793733
112	0x3c017a78	0.007902734
113	0xbd429872	-0.047508664
114	0xbdcaee9d	-0.09908793
115	0x3d4ffe83	0.05077983
116	0x3cc47233	0.023980236
117	0x3c069ad2	0.008215623
118	0x3d48822a	0.04895226
119	0x3d3d7164	0.046250716
120	0x3ca9c834	0.020725347
121	0xbdebdbce	-0.11516534
122	0x3d5eb578	0.05437228
123	0x3da6e908	0.08149916
124	0xbcf7d5e3	-0.030253356
125	0xbd24abcc	-0.0402029
126	0x3dccee7e	0.10006426
127	0x3cbffad0	0.023435026
128	0xbc6f354c	-0.014600109
129	0x3dafde4f	0.08587324
130	0x3d8f727c	0.07004258
131	0xbd1e6e67	-0.038679507
132	0x3d39400f	0.045227107
133	0xbc600f70	-0.013675556
134	0xbc1e8a78	-0.009676568
135	0x3d091744	0.033469453
136	0x3b38d90c	0.0028205542
137	0xbbcca068	-0.006244708
138	0xbc7edcaf	-0.015555545
139	0xbd1edbfd	-0.038784016
140	0xbca5d5b6	-0.020243507
141	0x3cc69514	0.024241008
142	0xbd6021a0	-0.054719567
143	0xbd8a025f	-0.067387335
144	0xbd5cbe13	-0.053892206
145	0xbd31dc1d	-0.043422807
146	0xbc9a6f19	-0.018851804
147	0x3d91f3ad	0.071265556
148	0xbd6b27ec	-0.05741112
149	0x3bb98749	0.005661879
150	0x3dbf0c71	0.09328545
151	0x3ceb881b	0.028751424
152	0x3d686a15	0.056741793
153	0xbd5c5342	-0.05379034
154	0x3d45dfba	0.048309065
155	0xbda1d14a	-0.07901247
156	0x3d0b98d9	0.034081314
157	0xbd74cdd7	-0.059766617
158	0x3d996256	0.07489459
159	0xbd6a45cb	-0.057195466
160	0xbd96a6bc	-0.07356021
161	0xbbcbcd55	-0.006219546
162	0x3d047fa3	0.032348286
163	0x3d2ba8ed	0.041909147
164	0xbc9060ee	-0.017624345
165	0x3d00c781	0.03144026
166	0xbd54b7c2	-0.051933058
167	0x3ca4ef7c	0.020133726
168	0x3b215f11	0.0024623314
169	0x3d796caa	0.060894646
170	0x3d756359	0.0599092
171	0xbd2c5990	-0.0420776
172	0x3c9d6aa4	0.01921589
173	0xbc5c2d2b	-0.013438503
174	0x3cbca205	0.023026476
175	0x3cd98eb4	0.026557304
176	0xbc58943a	-0.013218934
177	0xbda40786	-0.080092475
178	0xbd5407ad	-0.051765133
179	0x3b93bc9e	0.004508569
180	0xbd99944e	-0.0749899
181	0xbc55b8e9	-0.013044574
182	0xbd0f7356	-0.035022102
183	0xbc9ebb58	-0.019376442
184	0xbd287a9d	-0.041132558
185	0x3d9bb964	0.0760372
186	0x3b0aba6d	0.0021168247
187	0x3ce66082	0.02812219
188	0x3cd08c76	0.025457602
189	0xbc372082	-0.011177184
190	0xbbb943e3	-0.0056538447
191	0x3da9724c	0.082737535
192	0x3d3fe4fe	0.046849243
193	0xbd2a791a	-0.041619398
194	0x3be7c8cc	0.0070734974
195	0xbc46ac1f	-0.012125998
196	0x3d6d2f50	0.05790645
197	0xbc1014a8	-0.008793987
198	0xbd93c316	-0.07214944
199	0x3afc74cb	0.0019260881
200	0xbd94f1f4	-0.072727114
201	0xbd8e89a5	-0.06959847
202	0x3c94e70c	0.018176578
203	0xbd3ccb64	-0.046092406
204	0xbb454be6	-0.0030105053
205	0xbdede67a	-0.116162255
206	0x3cbcb3d8	0.023034975
207	0xbd54d8fc	-0.051964745
208	0x3c9f5ad4	0.01945249
209	0xbb2637be	-0.0025362815
210	0x3de98b7c	0.11403558
211	0x3df209dc	0.11818287
212	0x3d9b19f0	0.075733066
213	0xbda3a97d	-0.07991312
214	0x3d8e638b	0.0695258
215	0x3c2785ef	0.010224803
216	0x3d196b71	0.03745598
217	0x3d82e0c1	0.06390525
218	0x3d4c600a	0.049896277
219	0x3de4ef8e	0.11178504
220	0x3d5c0a8b	0.053720992
221	0xbdbabf68	-0.09118539
222	0x3d38d819	0.04512796
223	0x3ddf3cf1	0.109002955
224	0xbc228624	-0.009919677
225	0xbd930875	-0.071793474
226	0x3d0d0399	0.03442726
227	0x3d331b09	0.043726955
228	0x3d6d095e	0.05787026
229	0xbdb3d171	-0.08780182
230	0xbd997576	-0.07493107
231	0xbd91a453	-0.071114205
232	0xbd4cdf65	-0.050017733
233	0x3ddb98c8	0.107225
234	0xbd2b24f3	-0.041783284
235	0xbd54adb5	-0.051923472
236	0xbd0f981d	-0.035057176
237	0xbb1204ae	-0.0022280621
238	0xbdbe0548	-0.09278351
239	0x3d80e79c	0.06294176
240	0xbd2f43c2	-0.04278923
241	0x3c592ef9	0.013255828
242	0x3d67ebdb	0.056621414
243	0x3d8782f0	0.06616771
244	0x3cbe79c2	0.023251418
245	0x3d392901	0.04520512
246	0xbdbd718e	-0.092501745
247	0x3d7e001e	0.06201183
248	0xbb3ad174	-0.0028506191
249	0x3dae4d32	0.085108176
250	0xbd6756b9	-0.05647919
251	0x3d6224a9	0.055210743
252	0x3d354485	0.0442548
253	0xbd4e5cf6	-0.050381623
254	0xbc46accf	-0.012126162
255	0xbd91b074	-0.07113734

grn.0.bias f4 [64]
0	0xbc98fc93	-0.018675124
1	0x3dceeafa	0.10103412
2	0xbd4a22d1	-0.04934961
3	0xbca8e798	-0.020618245
4	0xbbe8f70f	-0.00710953
5	0x3b65242a	0.0034964182
6	0xbdd2af1c	-0.10287306
7	0x3ddd4f50	0.10806143
8	0xbd468c81	-0.04847384
9	0x3d88675d	0.0666034
10	0xbd289602	-0.041158684
11	0x3c811a15	0.015759507
12	0x3c93acaf	0.018026678
13	0xbde47fbe	-0.111571774
14	0xbc5d47c0	-0.013505876
15	0xbc3a81b9	-0.011383467
16	0xbce003e0	-0.027345598
17	0xbd9160d1	-0.070985444
18	0xbd509b13	-0.05092914
19	0x3dfd23f9	0.12360377
20	0x3c1457c0	0.009054124
21	0x3d369657	0.04457697
22	0x3d333663	0.04375304
23	0x3d51f83c	0.051262125
24	0x3bc47de4	0.0059964526
25	0x3d4e2a7d	0.05033349
26	0x3b834815	0.0040063956
27	0x3d8bb425	0.06821469
28	0x3e0329ce	0.12808916
29	0x3d63776d	0.055533815
30	0x3e01286f	0.1261308
31	0xbdc0817d	-0.09399698
32	0x3d84760d	0.06467829
33	0x3bb6fa2e	0.005584023
34	0x3d64e0e3	0.05587853
35	0x3d867267	0.06564789
36	0x3cf9c78a	0.030490655
37	0x3db6ac61	0.089195974
38	0x3e086817	0.13320957
39	0x3d9065c3	0.070506595
40	0x3d937e81	0.07201863
41	0x3d522b76	0.05131098
42	0x3ddd0433	0.107918166
43	0x3bed85f4	0.0072486345
44	0x3d4eb42f	0.050464805
45	0x3dcef4ce	0.101052865
46	0x3d65e108	0.05612281
47	0xbd8702e8	-0.06592351
48	0x3d035b16	0.03206929
49	0x3bef42a7	0.0073016468
50	0x3c3cae79	0.011516207
51	0x3d1d18df	0.038353797
52	0x3d9eb32b	0.07749017
53	0x3d3d6e8d	0.046248008
54	0x3d8f0125	0.0698264
55	0xbb016c07	-0.0019748227
56	0x3c417cf2	0.011809574
57	0xbd81fcb2	-0.06347026
58	0xbc963fb0	-0.018340915
59	0x3d040413	0.032230448
60	0xbd3ad984	-0.045617595
61	0xbbf85506	-0.007578495
62	0xbda7e9d2	-0.081988946
63	0xbd895be9	-0.067069836

grn.3.weight f4 [64, 64]
0	0xbdcffc2b	-0.10155519
1	0x3baa1ec5	0.0051916563
2	0x3d9b3e83	0.075802825
3	0xbc477bd1	-0.012175516
4	0xbb126ede	-0.0022343914
5	0xbc41f5d8	-0.011838399
6	0xba9a03ea	-0.0011750434
7	0x3a069ce3	0.0005135072
8	0x3d78e399	0.06076393
9	0xbe04e121	-0.12976505
10	0xbd5cc2c9	-0.0538967
11	0xbb22962a	-0.0024808743
12	0xbb953d65	-0.004554438
13	0x3dc12013	0.09429946
14	0x3c2d2666	0.010568237
15	0x3af1ed8b	0.0018457634
16	0xbd94cd77	-0.07265752
17	0x3d294598	0.041326135
18	0x3d490e72	0.04908604
19	0xbd635469	-0.05550042
20	0xbb888953	-0.004166761
21	0x3b8eec48	0.004361663
22	0x3d30b703	0.043143284
23	0xbd6cd063	-0.05781592
24	0xbd85c9fa	-0.065326646
25	0x3d0b89fc	0.03406714
26	0xbc6d4da2	-0.014483841
27	0x3d0b33d5	0.033984978
28	0x3d486a4e	0.048929505
29	0x3d802d66	0.06258659
30	0x3d03c125	0.03216662
31	0xba6adb54	-0.0008959074
32	0x3ca22dfb	0.019797316
33	0xbd62c238	-0.055361003
34	0xbb0f97a9	-0.0021910465
35	0xbc5d2ffe	-0.013500212
36	0x3cb08dc9	0.021551983
37	0xbda18f8e	-0.07888709
38	0xbd7a1338	-0.061053485
39	0x3c825981	0.01591182
40	0x3d41e22d	0.04733484
41	0x3d92abc4	0.07161668
42	0xbd8c950f	-0.06864368
43	0xbd04db89	-0.032435928
44	0xbde15b70	-0.110037684
45	0x3c95ade7	0.0182714
46	0x3d05ebb5	0.03269549
47	0x3d7ea9eb	0.062173765
48	0x3da5033d	0.08057258
49	0x3d890cc9	0.06691892
50	0x3d8381e1	0.06421257
51	0xbd63fb42	-0.05565954
52	0xbd0d361d	-0.034475435
53	0x3c209bb7	0.00980275
54	0xbc93ed95	-0.018057624
55	0xbd2c8449	-0.042118344
56	0x3cca30be	0.024681445
57	0xbbdbae44	-0.0067041237
58	0xbd92a18f	-0.07159721
59	0x3d41afc5	0.047286768
60	0x3d5de86c	0.054176733
61	0x3d487e3d	0.048948515
62	0x3d0f3ec0	0.034971952
63	0xbdb3419e	-0.0875275
64	0xbd250421	-0.04028714
65	0xbdad2fce	-0.08456384
66	0xbc802220	-0.015641272
67	0xbc0334df	-0.008008211
68	0xbd2a0f15	-0.04151829
69	0x3d86f898	0.06590384
70	0xbd83f865	-0.06443862
71	0xbd0b9051	-0.034073178
72	0x3c4fbd89	0.012679466
73	0x3c90788c	0.017635606
74	0x3d822e7f	0.06356525
75	0x3d7d3347	0.06181648
76	0xbd8256a7	-0.06364184
77	0x3d79ebbc	0.06101583
78	0x3d829a27	0.063770585
79	0xbcdc8f6e	-0.026923861
80	0xbbc53a96	-0.006018947
81	0xbd3ca351	-0.04605419
82	0xbd4b3ded	-0.049619604
83	0xbd8649af	-0.06557023
84	0x3b7cb652	0.003856082
85	0xbd0080bc	-0.03137277
86	0xbd0aea96	-0.033915125
87	0xbc94c313	-0.018159425
88	0xbd6a8bd8	-0.05726227
89	0xbd01efab	-0.031722706
90	0x3d4c997c	0.04995106
91	0xbd916b06	-0.07100491
92	0xbce0b3d9	-0.027429508
93	0xbd68c4ed	-0.056828428
94	0x3cf47423	0.029840535
95	0x3d9fefd3	0.07809415
96	0xbdaad4bb	-0.08341356
97	0xbd49594e	-0.049157433
98	0xbd27bbfe	-0.040950768
99	0x3d990e1a	0.07473393
100	0x3dbfb4c6	0.09360652
101	0xbd4e0483	-0.05029727
102	0xbd8f2179	-0.06988806
103	0xb9aaed6f	-0.0003260183
104	0xbb6342e8	-0.003467733
105	0x3c99f10e	0.018791702
106	0xbd94facd	-0.07274399
107	0x3d0e2de5	0.034711737
108	0x3d155e4c	0.03646688
109	0x3da91e27	0.08257704
110	0xbd9bea5d	-0.076130606
111	0x3cd979e5	0.026547382
112	0x3d8063d4	0.06269041
113	0xbcac66ac	-0.021045052
114	0x3cac7c8c	0.021055482
115	0x3cfc2a44	0.030781873
116	0xbdaa4204	-0.08313373
117	0x3d41b81f	0.047294732
118	0x3cdad850	0.026714474
119	0xbd39f9a9	-0.04540411
120	0x3dc44417	0.095832996
121	0xbc16ab29	-0.009196081
122	0xbc5c8114	-0.013458509
123	0x3d702394	0.05862768
124	0x3d88e561	0.066843756
125	0xbaf134c1	-0.0018402563
126	0xbd9fe1bf	-0.078067295
127	0x3d5fcb97	0.054637518
128	0x3dc91865	0.09819106
129	0x3d2d78ee	0.042351656
130	0x3c46ae19	0.012126469
131	0x3c886c7c	0.016653292
132	0x3cf8c5c0	0.030367732
133	0x3d410074	0.047119573
134	0xbc4fc3f1	-0.012680993
135	0x3d833779	0.06407065
136	0xbde52f6a	-0.11190684
137	0xbd5f9aab	-0.054590862
138	0xbdb45481	-0.0880518
139	0xbd8ad958	-0.06779736
140	0xbd78bbd9	-0.06072602
141	0xbde31052	-0.11087097
142	0xbd625e07	-0.055265453
143	0xbd596996	-0.05307921
144	0xbc860770	-0.016360968
145	0x3d416e1f	0.04722416
146	0xbdd28427	-0.10279112
147	0x3b27d8d0	0.0025611408
148	0x3daf6e71	0.08565987
149	0xbdd58a8b	-0.104268156
150	0xbda64610	-0.08118832
151	0xbc9eccab	-0.019384703
152	0x3d855d0f	0.0651189
153	0xbd13e47a	-0.036106564
154	0xbc9bbfd8	-0.019012377
155	0xbd5d79c8	-0.054071218
156	0x3dc03d7a	0.09386726
157	0xbddc12fe	-0.1074581
158	0xbd852820	-0.06501794
159	0x3cec2a43	0.028828746
160	0xbdca2ce5	-0.09871844
161	0xbd2b7093	-0.041855406
162	0x3da403ba	0.08008523
163	0x3d035685	0.032064933
164	0xbdbc3c26	-0.0919116
165	0x3d420603	0.047369014
166	0xbd38b302	-0.04509259
167	0xbd2c934c	-0.04213266
168	0x3da08397	0.07837599
169	0x3dd5f36b	0.10446819
170	0x3da749a7	0.08168345
171	0xbd338943	-0.043832075
172	0xbda849bc	-0.08217189
173	0xbcaf219c	-0.02137833
174	0x3dc53807	0.09629827
175	0xbcf01f5d	-0.02931183
176	0xbd11b8dc	-0.035576686
177	0x3d4d0c56	0.050060593
178	0xbc1128d4	-0.008859832
179	0xbd8c22c1	-0.06842566
180	0x3dec874a	0.11549242
181	0xbcaad888	-0.020855203
182	0x3d07ae0e	0.033124976
183	0x3d4c3383	0.049853813
184	0x3cb3ee36	0.021964174
185	0x3d709c06	0.058742546
186	0xbc875d5d	-0.016524011
187	0xbe1e330d	-0.15449162
188	0xbdd898f4	-0.105760485
189	0xbd6cfbb2	-0.057857223
190	0x3c80ff84	0.01574684
191	0x3d61a1ab	0.05508582
192	0xbd1f4f82	-0.038894184
193	0xbdbf08b3	-0.09327831
194	0xbddd10f6	-0.10794251
195	0xba17e3a0	-0.00057941116
196	0xbdbf14aa	-0.09330113
197	0xbd33325a	-0.04374919
198	0xbd271624	-0.0407926
199	0x3dbe2031	0.09283484
200	0x3c896de0	0.016776025
201	0xbcd5d82b	-0.026104053
202	0xbd415bd4	-0.047206715
203	0x3d26bcbe	0.040707342
204	0x3c42fc94	0.01190104
205	0xbd36debd	-0.044646014
206	0xbdcc6d89	-0.0998183
207	0xbceb607e	-0.028732534
208	0x3d418974	0.047250226
209	0xbdd37cc3	-0.10326531
210	0xbdb91761	-0.09037662
211	0x3d6f9411	0.058490817
212	0x3d07d24e	0.033159547
213	0x3d61adfd	0.05509757
214	0x3d897aa6	0.067128465
215	0x3d73ccd0	0.059521496
216	0xbcd34a7c	-0.025792353
217	0x3b42c2c2	0.0029718135
218	0xbd94c8d5	-0.07264868
219	0x3d8db4ca	0.069192484
220	0x3dbfcb33	0.09364929
221	0x3d87f563	0.06638601
222	0x3d8ad1e3	0.06778314
223	0xbd9e3de0	-0.077266455
224	0xbd6ec9d3	-0.058297943
225	0xbdf14528	-0.11780769
226	0xbd8c7ead	-0.06860099
227	0x3c4b7315	0.012417574
228	0x3dd5d99b	0.104418956
229	0xbd8347f9	-0.06410212
230	0xbd98ddc5	-0.07464174
231	0x3d4db22c	0.050218746
232	0x3d3b64e4	0.045750514
233	0xbdb013c7	-0.08597522
234	0x3b6ee232	0.003645074
235	0x3d8e0ad9	0.06935663
236	0xbcb23adf	-0.021756588
237	0xbdf17820	-0.1179049
238	0x3cd94f88	0.026527181
239	0x3ce88c9e	0.028387364
240	0xbdc4a084	-0.096009284
241	0x3d9d8515	0.07691399
242	0xbcfaf7a2	-0.030635659
243	0xbe066e3c	-0.13127989
244	0x3bb42098	0.0054970495
245	0x3ddeedea	0.10885222
246	0xbd868f6f	-0.065703265
247	0x3c7f2112	0.015571849
248	0xbd179d10	-0.03701502
249	0x3c8a89a2	0.016911332
250	0x3d2f9b38	0.042872638
251	0x3d92d493	0.071694516
252	0x3dc64fae	0.096831664
253	0xbdc4ae66	-0.09603576
254	0x3dae8e4e	0.08523236
255	0x3ce59864	0.028026767

grn.3.bias f4 [64]
0	0xbd2075da	-0.039174892
1	0x39caf9db	0.000387146
2	0xbcbf4c2a	-0.023351748
3	0x3d052678	0.03250739
4	0xbd417fae	-0.047240905
5	0xbcefe0ec	-0.029282056
6	0x3d06bcc9	0.032894883
7	0x3c28d58a	0.010304818
8	0xbd5990e8	-0.05311671
9	0x3d2b7099	0.04185543
10	0x3d10120e	0.03517347
11	0x3d05bb30	0.03264922
12	0xbd3443ec	-0.044010088
13	0x3ca84e23	0.020545071
14	0x3bbb2be6	0.00571202
15	0xbd62ba2f	-0.05535334
16	0xbdba0248	-0.09082466
17	0xbd5ba361	-0.053622607
18	0x3d5a8737	0.053351607
19	0xbb8a960a	-0.004229312
20	0xbd7c40dc	-0.061585292
21	0x3c4858ee	0.012228234
22	0x3d86a1c8	0.06573826
23	0xbc319116	-0.010837814
24	0x3cb51d40	0.022108674
25	0x3dc0aca9	0.09407932
26	0x3ddc7992	0.10765375
27	0x3e08c17b	0.13355057
28	0x3d594cd4	0.053051785
29	0xbaff658d	-0.001948522
30	0x3d71bf75	0.05902048
31	0xbd40512d	-0.046952415
32	0xbd011664	-0.031515494
33	0x3d8d8b1a	0.06911297
34	0x3c07d2c9	0.008290001
35	0xbafb887b	-0.0019190455
36	0x3cc3a2f3	0.023881411
37	0x3d0a9115	0.033829767
38	0x3d5efbf4	0.0544395
39	0x3dcfad4c	0.10140476
40	0xbd3bd014	-0.045852736
41	0x3dd7832a	0.105230644
42	0x3d729dfe	0.059232704
43	0xbd2d15f1	-0.042257253
44	0x3cee357e	0.029078241
45	0xbd176953	-0.03696568
46	0x3ccce70a	0.025012512
47	0xbce2eb34	-0.027700044
48	0xbdd0779d	-0.101790644
49	0x3d293aef	0.04131597
50	0x3ca89181	0.020577194
51	0x3dd8060f	0.105480306
52	0x3db76ea3	0.08956649
53	0xbcf4942b	-0.029855808
54	0x3c27ac14	0.010233898
55	0x3dc5d34f	0.096594445
56	0x3d88cb73	0.0667943
57	0xbd8731c6	-0.066012904
58	0xbd384b0a	-0.044993438
59	0x3daa8fb7	0.08328193
60	0x3d471624	0.0486051
61	0xbd87a976	-0.06624119
62	0x36cfb540	6.190181e-06
63	0x3cc72294	0.02430848

norm1.weight f4 [64]
0	0x3f816b51	1.0110875
1	0x3f7cf8d8	0.98817205
2	0x3f860cb8	1.0472631
3	0x3f7a4351	0.97758967
4	0x3f7dec6f	0.99188894
5	0x3f81ae93	1.0131401
6	0x3f7c5b22	0.9857656
7	0x3f7ecaed	0.9952839
8	0x3f754952	0.95815
9	0x3f81419b	1.0098146
10	0x3f7fd58c	0.9993522
11	0x3f7f9f0f	0.9985208
12	0x3f7d9a91	0.99063975
13	0x3f791e18	0.97311544
14	0x3f7e3b40	0.9930916
15	0x3f820f41	1.0160905
16	0x3f7992fd	0.9748991
17	0x3f82d751	1.0221959
18	0x3f79f34c	0.97636867
19	0x3f803175	1.0015093
20	0x3f80f158	1.0073652
21	0x3f79e597	0.9761595
22	0x3f78f3aa	0.972468
23	0x3f803e28	1.0018969
24	0x3f80a328	1.0049791
25	0x3f82f245	1.0230185
26	0x3f7fa950	0.99867725
27	0x3f82677d	1.0187832
28	0x3f8439ef	1.033018
29	0x3f8376f4	1.0270677
30	0x3f7f8312	0.9980937
31	0x3f7d94d8	0.9905524
32	0x3f7d563e	0.9895972
33	0x3f7bb684	0.9832537
34	0x3f7d4da1	0.9894658
35	0x3f84bfaa	1.0370991
36	0x3f802cac	1.0013633
37	0x3f7ef868	0.9959779
38	0x3f7b6107	0.98194927
39	0x3f747910	0.95497227
40	0x3f81fe64	1.0155759
41	0x3f82eaac	1.0227866
42	0x3f7d08dc	0.98841643
43	0x3f82dbfe	1.0223386
44	0x3f73c6a5	0.9522498
45	0x3f7d8939	0.9903751
46	0x3f7fa120	0.9985523
47	0x3f788aa1	0.9708653
48	0x3f7f7335	0.99785167
49	0x3f7d2341	0.9888192
50	0x3f85b8b2	1.044699
51	0x3f79e2a6	0.97611463
52	0x3f85f62d	1.0465752
53	0x3f82f755	1.023173
54	0x3f7e6d59	0.993856
55	0x3f83c642	1.0294878
56	0x3f81bca2	1.0135691
57	0x3f822dd0	1.0170231
58	0x3f8133a4	1.0093884
59	0x3f778fa0	0.9670353
60	0x3f81dce4	1.0145535
61	0x3f82df7b	1.0224451
62	0x3f7d0d01	0.9884797
63	0x3f83a97b	1.0286096

norm1.bias f4 [64]
0	0xbb2d9332	-0.002648544
1	0x3cff1a84	0.031140573
2	0xbd080e06	-0.0332165
3	0xbd028966	-0.031869315
4	0x3bca9624	0.006182449
5	0x3b9002a0	0.004394844
6	0x3d5f0417	0.05444726
7	0x3cd6ffc5	0.026245007
8	0xbc6593f0	-0.014012322
9	0x3c2a863c	0.0104079805
10	0x3d01520f	0.031572398
11	0xbcde8ec0	-0.027167678
12	0xbc4ef8fd	-0.012632606
13	0x3c8c0d0d	0.017096067
14	0xbca00f83	-0.019538647
15	0x3cd360b4	0.025802948
16	0x3caf4d33	0.021399116
17	0x3b78e9ed	0.0037981228
18	0xbcdfe37f	-0.027330158
19	0xbc5d8a3a	-0.013521725
20	0xbc86b288	-0.016442552
21	0xbcb6a899	-0.02229719
22	0xbcb6fd18	-0.022337481
23	0xbca799fe	-0.020459171
24	0xbc39a904	-0.0113318
25	0x3ca8bd35	0.020598033
26	0xbcaa1096	-0.020759862
27	0xbd01b92a	-0.031670727
28	0xbc8229fe	-0.015889164
29	0x3c9fbf90	0.019500524
30	0x3c302e72	0.010753261
31	0x3ca78a82	0.020451788
32	0x3cd53f0b	0.026031038
33	0x3c9c604a	0.019088883
34	0xbc3eacaa	-0.011637846
35	0xbc82ce0e	-0.015967395
36	0x3c9b2797	0.018939776
37	0x3cfc1624	0.030772276
38	0x3cb54b7f	0.022130726
39	0x3ca81989	0.020519989
40	0x3ca37131	0.019951435
41	0xbcba4877	-0.022739632
42	0x3cabee92	0.020987783
43	0x3cbcf71e	0.023067053
44	0x3cad9aea	0.021192033
45	0xbc5bd53f	-0.013417541
46	0x3c3065fb	0.010766502
47	0x3c4eecba	0.012629682
48	0xbc9dc642	-0.019259576
49	0x3c93c55a	0.01803844
50	0xbc9d844e	-0.019228127
51	0x3a1a4455	0.0005884816
52	0x3c984f75	0.018592576
53	0x3cb02bed	0.02150532
54	0x3c672992	0.014109032
55	0xbca7ef37	-0.020499809
56	0xbcc38115	-0.023865262
57	0xbcaf888f	-0.02142742
58	0x3c26721a	0.01015904
59	0x3caf4ce0	0.021398962
60	0xbc7a2afc	-0.015269037
61	0x3c5317f4	0.012884129
62	0xbc23bc0a	-0.0099935625
63	0x3ce997f4	0.02851484
